weights/mobilenetv2/compact.tflite (tflite, 122400 bytes, 14 tensors)

tfl.pseudo_qconst1 i1 [1, 64] scale=0.0046420363 zero_point=0
0.48277178 0.33886865 0.3342266 -0.27388015 0.4456355 -0.29244828 0.43170938 -0.106766835
-0.106766835 -0.11605091 0.29244828 0.5384762 0.40849918 0.48277178 0.5756125 -0.051062398
0.44099346 -0.32494253 0.36672086 -0.3713629 0.27852216 0.4734877 0.48741382 0.4595616
0.49205583 0.46884567 0.42706734 0.46420363 0.36207882 -0.06963054 0.49669787 0.5013399
-0.13461906 -0.26459607 0.52919215 0.37600493 -0.041778326 0.03713629 -0.24602792 0.31101644
-0.032494254 0.58953863 0.34815273 0.48277178 0.27388015 -0.255312 0.39921513 0.29244828
0.28780624 -0.31101644 0.31565848 -0.36207882 -0.22281775 0.40385714 0.42706734 -0.14854516
0.4502775 -0.060346473 0.30173236 0.4502775 -0.07427258 -0.2692381 -0.09284072 0.36672086
00000000: 6849 48c5 60c1 5de9 e9e7 3f74 5868 7cf5
00000010: 5fba 4fb0 3c66 6963 6a65 5c64 4ef1 6b6c
00000020: e3c7 7251 f708 cb43 f97f 4b68 3bc9 563f
00000030: 3ebd 44b2 d057 5ce0 61f3 4161 f0c6 ec4f

tfl.pseudo_qconst3 i1 [64, 128]
97 -59 -76 53 67 74 93 64
124 -63 14 34 33 -47 -91 50
78 46 105 85 27 -49 -72 -51
-29 -40 88 85 71 65 7 67
95 112 -36 -29 13 -43 74 7
105 56 98 -88 -32 -72 -4 69
79 -84 -58 -99 20 -70 -35 100
-30 74 73 -20 10 -19 -92 56
107 -60 54 113 57 99 -10 27
65 -12 39 98 22 -29 115 39
62 81 -61 -49 -57 90 -91 -89
-69 -32 94 -36 74 41 85 54
110 47 67 108 -93 50 46 58
-37 -74 73 96 123 126 -74 59
17 31 -122 1 -103 120 44 -47
127 34 5 91 26 -83 7 81
54 -92 -52 127 26 37 72 29
36 -56 -23 -21 78 -5 -81 56
8 104 94 47 61 -14 -34 -3
1 -68 79 62 85 91 -44 72
92 101 17 -2 74 9 -18 -5
107 32 34 -81 -48 -3 -13 -5
48 -103 -58 -62 45 -55 -40 83
-37 87 37 -66 23 -73 -7 61
77 22 -4 51 64 63 -27 -1
22 3 104 47 63 -82 26 15
60 43 -61 53 15 39 -14 -35
-49 37 45 -33 41 16 75 65
86 65 70 17 -96 76 104 3
-79 -65 83 100 19 98 18 82
106 110 -100 -40 -82 104 76 35
46 31 46 48 19 9 -8 100
00000000: 61c5 b435 434a 5d40 7cc1 0e22 21d1 a532
00000010: 4e2e 6955 1bcf b8cd e3d8 5855 4741 0743
00000020: 5f70 dce3 0dd5 4a07 6938 62a8 e0b8 fc45
00000030: 4fac c69d 14ba dd64 e24a 49ec 0aed a438
00000040: 6bc4 3671 3963 f61b 41f4 2762 16e3 7327
00000050: 3e51 c3cf c75a a5a7 bbe0 5edc 4a29 5536
00000060: 6e2f 436c a332 2e3a dbb6 4960 7b7e b63b
00000070: 111f 8601 9978 2cd1 7f22 055b 1aad 0751
00000080: 36a4 cc7f 1a25 481d 24c8 e9eb 4efb af38
00000090: 0868 5e2f 3df2 defd 01bc 4f3e 555b d448
000000a0: 5c65 11fe 4a09 eefb 6b20 22af d0fd f3fb
000000b0: 3099 c6c2 2dc9 d853 db57 25be 17b7 f93d
000000c0: 4d16 fc33 403f e5ff 1603 682f 3fae 1a0f
000000d0: 3c2b c335 0f27 f2dd cf25 2ddf 2910 4b41
000000e0: 5641 4611 a04c 6803 b1bf 5364 1362 1252
000000f0: 6a6e 9cd8 ae68 4c23 2e1f 2e30 1309 f864

tfl.pseudo_qconst4 i1 [128] scale=0.005666152 zero_point=127
-0.5439506 -1.1445627 -0.6459413 -0.5099537 -0.67993826 -0.97457814 -0.45895833 -0.47029063
-0.58927983 -1.4278703 -0.6629398 -0.54961675 -0.9349151 -1.1218982 -0.9292489 -0.6402752
-1.0539043 -0.6686059 -0.41929525 -0.48162293 -1.3938735 -0.5779475 -1.2465534 -0.6969367
-0.6516075 -0.855589 -0.39663064 -1.2182227 -1.2975489 -0.48162293 -0.6006121 -1.3485442
-0.5666152 -0.50428754 -0.6062783 -0.63460904 -1.1672274 -0.5609491 -1.4052057 -0.74226594
-0.71960133 -1.3938735 -0.5156198 -0.8159259 -0.8782536 -0.9859105 -0.8385905 -1.3825411
-1.1728935 -1.263552 -0.6402752 -1.2975489 -1.2012242 -1.2692181 -0.6402752 -0.67993826
-0.74226594 -0.46462446 -0.82159203 -0.7535982 -1.4448688 -0.7762628 -0.7705967 -1.1955581
-0.57228136 -0.57228136 -1.2578858 -0.5099537 -1.0935674 -0.5609491 -0.9915766 -0.5779475
-1.4222041 -0.5836137 -0.65727365 -0.57228136 -0.5439506 -1.2578858 -0.5439506 -1.303215
-0.94058126 -0.43062755 -0.7309336 -0.57228136 -0.61194444 -1.1955581 -0.9915766 -1.3712088
-1.4278703 -0.5666152 -0.49862137 -0.94058126 -0.50428754 -1.2862165 -0.45329216 -1.3995396
-1.1955581 -0.5552829 -0.70260286 -0.8272582 -1.155895 -1.2012242 -0.43062755 -1.3202134
-1.2748842 -0.84992284 -0.47595677 -0.74226594 -0.6629398 -0.521286 -0.63460904 -1.0369059
-0.71960133 -0.6629398 -1.3882073 -0.7932613 -0.95191354 -0.6232767 -1.2975489 -0.6176106
-0.47595677 -1.3428781 -1.3655427 -0.6686059 -1.155895 -0.70260286 -0.6459413 -0.48728907
00000000: 1fb5 0d25 07d3 2e2c 1783 0a1e dab9 db0e
00000010: c509 352a 8919 a304 0ce8 39a8 9a2a 1591
00000020: 1b26 140f b11c 87fc 0089 24ef e4d1 eb8b
00000030: b0a0 0e9a ab9f 0e07 fc2d eefa 80f6 f7ac
00000040: 1a1a a125 be1c d019 8418 0b1a 1fa1 1f99
00000050: d933 fe1a 13ac d08d 831b 27d9 269c 2f88
00000060: ac1d 03ed b3ab 3396 9ee9 2bfc 0a23 0fc8
00000070: 000a 8af3 d711 9a12 2b92 8e09 b303 0d29

tfl.pseudo_qconst5 i1 [128] scale=0.0064837583 zero_point=-128
1.530167 1.1735603 1.4134593 1.2513653 1.4199431 1.316203 1.5366508 1.5366508
1.5755533 0.94014496 1.4847807 1.6533583 1.290268 1.231914 1.3291705 1.4912645
1.1865277 1.5107157 1.5431345 1.4458781 1.0438851 1.394008 1.128174 1.4523618
1.3745568 1.4653294 1.5431345 1.0309175 1.0049826 1.607972 1.556102 0.9984988
1.5042319 1.4977481 1.4653294 1.4393944 1.0374013 1.4912645 0.96608 1.3810406
1.5042319 1.01795 1.394008 1.5236832 1.4069755 1.3032354 1.4069755 0.97256374
1.0698202 1.1216902 1.4264269 1.0763038 1.0892714 1.1216902 1.4782969 1.5820371
1.4134593 1.4069755 1.4199431 1.4199431 0.73914844 1.4069755 1.5042319 1.0244339
1.5690695 1.5107157 0.97904754 1.5690695 1.0633364 1.5366508 1.2708167 1.4458781
0.97904754 1.4782969 1.4523618 1.5366508 1.5366508 1.1605928 1.4977481 1.01795
1.2643329 1.5171994 1.4588456 1.4977481 1.4588456 1.0309175 1.2059791 1.0244339
0.992015 1.4329106 1.6014884 1.3226867 1.2967516 1.0438851 1.5690695 0.9336612
1.0763038 1.5950046 1.4977481 1.3486217 1.2967516 1.1022389 1.5885208 0.97256374
1.1476252 1.4004918 1.556102 1.4199431 1.5690695 1.5431345 1.5107157 1.1022389
1.4718131 1.4588456 0.9336612 1.4264269 1.394008 1.556102 1.01795 1.4912645
1.4653294 0.9855313 0.9984988 1.4393944 1.0633364 1.4977481 1.4523618 1.530167
00000000: 6c35 5a41 5b4b 6d6d 7311 657f 473e 4d66
00000010: 3769 6e5f 2157 2e60 5462 6e1f 1b78 701a
00000020: 6867 625e 2066 1555 681d 576b 5949 5916
00000030: 252d 5c26 282d 6474 5a59 5b5b f259 681e
00000040: 7269 1772 246d 445f 1764 606d 6d33 671d
00000050: 436a 6167 611f 3a1e 195d 774c 4821 7210
00000060: 2676 6750 482a 7516 3158 705b 726e 692a
00000070: 6361 105c 5770 1d66 6218 1a5e 2467 606c

tfl.pseudo_qconst7 i1 [128, 3, 3, 64]
-12 -30 31 -34 38 -46 -22 -18
26 -25 38 -36 -43 -25 -9 -3
37 -14 -9 -10 19 7 75 54
-44 -7 -17 3 -16 -21 44 -23
-1 -10 32 -5 74 -26 4 -58
8 3 -40 15 23 -16 -13 33
-58 23 37 49 -86 -7 43 4
15 5 22 -18 -27 -38 -1 -4
-10 1 27 -42 53 -68 -9 -10
-9 25 0 20 -17 22 -7 10
20 30 -30 -18 -1 30 64 9
-32 -26 -38 -38 -45 -48 20 -39
31 -28 27 -29 59 -16 -37 11
3 0 -75 29 -30 -1 -53 -8
-14 -1 23 -42 -30 12 -13 -4
-9 -15 66 18 1 -21 34 -13
-65 -26 106 -40 -2 -59 -48 -62
-22 13 -12 -47 -26 -13 -6 18
2 9 26 43 58 30 127 46
-11 -52 -8 -18 -63 32 20 -40
-3 -70 43 -48 59 -18 19 -57
-2 -30 0 32 19 0 -65 8
-47 -34 4 14 -63 -15 -1 -2
-7 39 40 4 -57 -20 32 25
0 -22 -29 -23 -30 -33 -32 22
-31 -32 -25 -10 -30 -30 7 -22
-40 3 17 13 34 -35 53 33
2 -29 -22 14 -17 -27 -14 -16
-5 14 34 -40 -14 15 -17 -21
-50 -34 -24 -26 36 -42 7 -26
19 6 17 -35 -42 6 19 18
19 1 22 0 2 -57 -9 18
00000000: f4e2 1fde 26d2 eaee 1ae7 26dc d5e7 f7fd
00000010: 25f2 f7f6 1307 4b36 d4f9 ef03 f0eb 2ce9
00000020: fff6 20fb 4ae6 04c6 0803 d80f 17f0 f321
00000030: c617 2531 aaf9 2b04 0f05 16ee e5da fffc
00000040: f601 1bd6 35bc f7f6 f719 0014 ef16 f90a
00000050: 141e e2ee ff1e 4009 e0e6 dada d3d0 14d9
00000060: 1fe4 1be3 3bf0 db0b 0300 b51d e2ff cbf8
00000070: f2ff 17d6 e20c f3fc f7f1 4212 01eb 22f3
00000080: bfe6 6ad8 fec5 d0c2 ea0d f4d1 e6f3 fa12
00000090: 0209 1a2b 3a1e 7f2e f5cc f8ee c120 14d8
000000a0: fdba 2bd0 3bee 13c7 fee2 0020 1300 bf08
000000b0: d1de 040e c1f1 fffe f927 2804 c7ec 2019
000000c0: 00ea e3e9 e2df e016 e1e0 e7f6 e2e2 07ea
000000d0: d803 110d 22dd 3521 02e3 ea0e efe5 f2f0
000000e0: fb0e 22d8 f20f efeb cede e8e6 24d6 07e6
000000f0: 1306 11dd d606 1312 1301 1600 02c7 f712

tfl.pseudo_qconst8 i1 [64] scale=0.0041946997 zero_point=127
-0.5662845 -0.69212544 -0.69212544 -0.6082315 -0.99414384 -0.40688586 -0.78860354 -1.0696484
-0.80118763 -0.65856785 -0.72568303 -0.51594806 -0.97317034 -0.55789506 -0.77601945 -0.92702866
-0.72987777 -1.061259 -0.86410815 -0.59145266 -0.7718247 -1.0277014 -0.57467383 -0.75504595
-0.54950565 -0.80957705 -0.50755864 -0.6082315 -0.83893996 -0.70470953 -0.9689756 -0.71309894
-0.6753467 -0.79699296 -0.5662845 -0.7927982 -0.6627625 -0.7718247 -0.61662084 -0.54950565
-0.7927982 -0.71309894 -0.65017843 -0.5998421 -0.76343536 -0.76343536 -0.89347106 -0.80118763
-0.78860354 -0.6417891 -1.0235068 -1.048675 -0.89347106 -0.5662845 -1.061259 -0.8599134
-0.8263558 -0.72568303 -0.7927982 -0.93122333 -0.65856785 -0.683736 -0.84313464 -0.97317034
00000000: f8da daee 921e c380 c0e2 d204 97fa c6a2
00000010: d182 b1f2 c78a f6cb fcbe 06ee b7d7 98d5
00000020: dec1 f8c2 e1c7 ecfc c2d5 e4f0 c9c9 aac0
00000030: c3e6 8b85 aaf8 82b2 bad2 c2a1 e2dc b697

tfl.pseudo_qconst9 i1 [64] scale=0.012459855 zero_point=-128
0.9344891 0.8846497 2.2427738 1.1712264 1.370584 2.392292 0.92202926 1.5574818
0.80989057 0.83481026 1.3456643 0.685292 0.74759126 2.4545913 1.2958249 1.0217081
1.2958249 1.3207446 0.72267157 2.0434163 0.772511 1.8191388 3.177263 1.3332044
0.5731533 0.67283213 1.2958249 0.85972995 1.2210658 0.8223504 0.7849708 1.2958249
0.8846497 0.8223504 2.479511 0.9594088 2.4172118 0.83481026 0.67283213 1.6447008
1.3207446 0.8223504 0.67283213 1.457803 1.6073213 1.108927 1.0341679 1.3207446
1.108927 0.9967884 1.1463066 1.8938979 1.2086059 1.0217081 1.0590876 0.9843285
0.73513144 0.9967884 1.5325621 1.2459855 1.4328833 1.1463066 1.108927 1.3456643
00000000: cbc7 34de ee40 cafd c1c3 ecb7 bc45 e8d2
00000010: e8ea ba24 be12 7feb aeb6 e8c5 e2c2 bfe8
00000020: c7c2 47cd 42c3 b604 eac2 b6f5 01d9 d3ea
00000030: d9d0 dc18 e1d2 d5cf bbd0 fbe4 f3dc d9ec

tfl.pseudo_qconst11 i1 [64, 3, 3, 32]
50 40 -8 -65 -9 -38 12 65
100 -72 43 37 9 -19 -72 86
119 8 30 26 2 -29 105 31
88 62 3 21 -12 -23 -46 3
-94 59 0 19 8 3 36 15
109 -86 -68 86 -1 5 -23 -14
-20 -60 38 58 27 1 96 -47
-28 -82 16 -31 81 17 22 60
-15 68 7 -34 45 26 -60 67
29 -33 -31 -27 -66 -1 92 -4
52 -110 52 63 -9 0 86 56
49 -11 -32 77 82 -71 -43 101
61 39 -71 13 -32 -78 -55 13
64 17 -32 29 39 -1 -51 10
-1 -56 39 -2 -33 -34 34 -71
71 30 -60 -51 98 -35 -63 70
-17 -19 62 59 -2 0 2 66
35 -35 -66 -30 -102 0 3 -27
52 -48 -23 -70 60 17 59 15
53 41 -59 -31 32 -84 63 -71
-31 -1 68 40 -34 0 54 90
34 -103 71 -51 -2 59 -74 -19
9 -78 -4 -37 -38 2 64 67
68 53 -33 5 -6 -76 84 -103
45 -64 -35 -47 -19 0 -34 7
-7 84 -118 12 -55 54 40 40
19 -109 68 41 -49 -53 19 8
-26 127 43 38 -42 -73 62 63
66 40 1 -14 -21 47 38 68
-10 -9 -34 21 19 20 47 26
22 -44 -16 -104 -29 -88 11 61
-99 42 -63 -87 75 -70 9 5
00000000: 3228 f8bf f7da 0c41 64b8 2b25 09ed b856
00000010: 7708 1e1a 02e3 691f 583e 0315 f4e9 d203
00000020: a23b 0013 0803 240f 6daa bc56 ff05 e9f2
00000030: ecc4 263a 1b01 60d1 e4ae 10e1 5111 163c
00000040: f144 07de 2d1a c443 1ddf e1e5 beff 5cfc
00000050: 3492 343f f700 5638 31f5 e04d 52b9 d565
00000060: 3d27 b90d e0b2 c90d 4011 e01d 27ff cd0a
00000070: ffc8 27fe dfde 22b9 471e c4cd 62dd c146
00000080: efed 3e3b fe00 0242 23dd bee2 9a00 03e5
00000090: 34d0 e9ba 3c11 3b0f 3529 c5e1 20ac 3fb9
000000a0: e1ff 4428 de00 365a 2299 47cd fe3b b6ed
000000b0: 09b2 fcdb da02 4043 4435 df05 fab4 5499
000000c0: 2dc0 ddd1 ed00 de07 f954 8a0c c936 2828
000000d0: 1393 4429 cfcb 1308 e67f 2b26 d6b7 3e3f
000000e0: 4228 01f2 eb2f 2644 f6f7 de15 1314 2f1a
000000f0: 16d4 f098 e3a8 0b3d 9d2a c1a9 4bba 0905

tfl.pseudo_qconst12 i1 [32] scale=0.0057164202 zero_point=127
-0.7717167 -1.2690454 -0.7831496 -0.6173734 -0.8117317 -0.897478 -0.8117317 -1.3433588
-0.72026896 -1.0060899 -0.66882116 -1.0632541 -0.56020916 -0.69168687 -0.8517466 -0.80601525
-1.0518214 -0.50304496 -0.8288809 -1.4576871 -0.5945077 -0.73741823 -0.86317945 -0.6459555
-1.3147767 -1.1375676 -0.45731363 -0.85746306 -0.6059405 -1.0518214 -0.75456744 -1.2290304
00000000: f8a1 f613 f1e2 f194 01cf 0ac5 1d06 eaf2
00000010: c727 ee80 17fe e80e 99b8 2fe9 15c7 fba8

tfl.pseudo_qconst13 i1 [32] scale=0.010625475 zero_point=-128
1.8169563 1.6150723 1.700076 1.721327 2.5076122 1.8275818 2.0294657 2.3376045
1.4556901 2.4013574 1.5831958 2.3057282 1.5300684 0.96691823 1.657574 1.7107015
2.2632263 1.4344392 1.7425779 1.8169563 2.7094963 1.3706863 1.5831958 1.2644315
1.944462 1.7850798 2.0188403 2.1569715 2.0613422 2.0719676 1.7319524 2.2738516
00000000: 2b18 2022 6c2c 3f5c 0962 1559 10db 1c21
00000010: 5507 242b 7f01 15f7 3728 3e4b 4243 2356

tfl.pseudo_qconst15 i1 [32, 3, 3, 16]
-62 -83 -49 -7 -10 -15 24 -49
19 4 -73 82 27 -21 17 -27
-21 -31 -70 41 -34 79 -44 -14
23 12 39 10 2 -79 57 56
59 83 5 -28 27 52 -28 -89
25 -25 -84 -60 97 -24 25 47
-27 37 -29 -25 -70 63 38 -85
78 76 101 5 -55 13 103 -82
43 -35 -64 -22 -20 -49 1 38
36 117 14 -13 -23 42 54 -52
-29 56 45 32 -11 -22 92 60
-12 -66 73 -34 -29 73 67 36
-59 -50 -37 66 -74 -70 28 -71
-50 -9 -94 -38 -58 -18 35 3
-92 30 73 -57 9 38 -36 -34
52 -22 21 8 2 -21 3 57
-5 21 65 31 85 55 -45 -20
-94 -107 -127 24 -33 6 48 -78
-8 -8 -27 59 2 42 -127 -19
34 -103 -92 21 13 89 -17 52
65 13 -29 -29 17 34 -55 -7
-21 -71 78 -11 -20 -8 11 -9
-36 -57 -97 72 -71 93 -60 51
83 -25 -41 2 3 40 43 -21
-59 -63 -105 19 -69 -26 30 32
-26 61 -42 8 -28 71 -111 -39
-18 -58 -23 -65 -32 -126 54 2
-64 -58 15 48 32 -42 -95 1
-13 18 51 47 -68 49 -34 5
43 -5 54 -46 -103 -43 -51 -14
-50 25 -19 -29 55 5 -24 108
-56 -38 83 78 -50 2 -40 13
00000000: c2ad cff9 f6f1 18cf 1304 b752 1beb 11e5
00000010: ebe1 ba29 de4f d4f2 170c 270a 02b1 3938
00000020: 3b53 05e4 1b34 e4a7 19e7 acc4 61e8 192f
00000030: e525 e3e7 ba3f 26ab 4e4c 6505 c90d 67ae
00000040: 2bdd c0ea eccf 0126 2475 0ef3 e92a 36cc
00000050: e338 2d20 f5ea 5c3c f4be 49de e349 4324
00000060: c5ce db42 b6ba 1cb9 cef7 a2da c6ee 2303
00000070: a41e 49c7 0926 dcde 34ea 1508 02eb 0339
00000080: fb15 411f 5537 d3ec a295 8118 df06 30b2
00000090: f8f8 e53b 022a 81ed 2299 a415 0d59 ef34
000000a0: 410d e3e3 1122 c9f9 ebb9 4ef5 ecf8 0bf7
000000b0: dcc7 9f48 b95d c433 53e7 d702 0328 2beb
000000c0: c5c1 9713 bbe6 1e20 e63d d608 e447 91d9
000000d0: eec6 e9bf e082 3602 c0c6 0f30 20d6 a101
000000e0: f312 332f bc31 de05 2bfb 36d2 99d5 cdf2
000000f0: ce19 ede3 3705 e86c c8da 534e ce02 d80d

tfl.pseudo_qconst16 i1 [16] scale=0.010963583 zero_point=126
-0.6468514 -0.8222687 -1.2169578 -2.4558427 -2.7847502 -1.2717757 -0.14252658 -0.42757976
-0.42757976 0.010963583 -0.17541733 -1.0744312 -1.9624814 -1.0196133 -1.0305768 -0.16445374
00000000: 4333 0f9e 800a 7157 577f 6e1c cb21 206f

tfl.pseudo_qconst17 i1 [16] scale=0.09459564 zero_point=-128
11.256882 9.743351 9.270372 4.4459953 5.20276 9.459564 24.12189 12.675816
10.40552 19.865084 19.29751 10.310925 8.608203 11.824455 10.21633 18.351555
00000000: f7e7 e2af b7e4 7f06 ee52 4ced dbfd ec42

tfl.pseudo_qconst19 i1 [16, 3, 3, 3]
98 -46 100 59 -108 14 -21 -12
102 65 -55 88 -108 32 36 63
67 -52 -48 -111 -79 -81 18 127
-94 -54 106 -119 86 70 -1 -80
71 -98 118 73 54 -2 50 11
-37 36 37 98 66 -38 -82 -11
-118 -127 -60 92 -64 63 43 -105
-22 -76 27 86 26 92 -32 39
127 -106 -107 -81 -19 114 87 101
-125 79 75 -116 127 91 -36 -106
120 86 16 5 127 35 51 51
44 46 87 84 -69 -26 -27 -33
-14 -4 -10 -60 12 -4 75 28
-96 66 4 44 -48 55 12 59
-67 -74 -60 -90 46 42 47 41
-23 32 -57 52 -71 57 -2 67
96 20 83 127 -45 15 54 71
-2 91 -82 -52 50 -33 -35 -122
-93 62 66 67 114 90 -72 -127
56 -15 114 -96 -59 70 -106 18
95 50 42 79 -113 -33 -59 10
-51 -11 109 106 60 -90 -63 -68
-62 24 -64 120 -62 -34 -65 -18
-59 25 35 -81 -127 -50 -77 105
127 -83 4 -78 -51 -13 -112 -66
-25 -97 105 -100 114 -83 92 -48
66 -101 48 -64 87 9 77 103
32 73 83 3 35 -52 15 -11
-107 20 -5 47 112 8 -37 -23
-62 -83 93 48 -1 -19 8 -127
-49 17 -85 91 79 102 -19 -102
-127 -51 -35 -32 -92 -28 -17 12
00000000: 62d2 643b 940e ebf4 6641 c958 9420 243f
00000010: 43cc d091 b1af 127f a2ca 6a89 5646 ffb0
00000020: 479e 7649 36fe 320b db24 2562 42da aef5
00000030: 8a81 c45c c03f 2b97 eab4 1b56 1a5c e027
00000040: 7f96 95af ed72 5765 834f 4b8c 7f5b dc96
00000050: 7856 1005 7f23 3333 2c2e 5754 bbe6 e5df
00000060: f2fc f6c4 0cfc 4b1c a042 042c d037 0c3b
00000070: bdb6 c4a6 2e2a 2f29 e920 c734 b939 fe43
00000080: 6014 537f d30f 3647 fe5b aecc 32df dd86
00000090: a33e 4243 725a b881 38f1 72a0 c546 9612
000000a0: 5f32 2a4f 8fdf c50a cdf5 6d6a 3ca6 c1bc
000000b0: c218 c078 c2de bfee c519 23af 81ce b369
000000c0: 7fad 04b2 cdf3 90be e79f 699c 72ad 5cd0
000000d0: 429b 30c0 5709 4d67 2049 5303 23cc 0ff5
000000e0: 9514 fb2f 7008 dbe9 c2ad 5d30 ffed 0881
000000f0: cf11 ab5b 4f66 ed9a 81cd dde0 a4e4 ef0c
